…
AVX512_VNNI FMA, in other 
operations, rebuild 
TensorFlow with the 
appropriate compiler 
flags.

=======================================================
  STEP 2: Building model
=======================================================
[INFO] VGG16 total layers : 19
[INFO] Trainable from idx : 15 (4 layers)
Model: "BrainTumorVGG16"
+--------------------------------------------------------------------------+
| Layer (type)                    | Output Shape           |       Param # |
|---------------------------------+------------------------+---------------|
| mri_input (InputLayer)          | (None, 224, 224, 3)    |             0 |
|---------------------------------+------------------------+---------------|
| vgg16 (Functional)              | (None, 7, 7, 512)      |    14,714,688 |
|---------------------------------+------------------------+---------------|
| gap (GlobalAveragePooling2D)    | (None, 512)            |             0 |
|---------------------------------+------------------------+---------------|
| fc1 (Dense)                     | (None, 256)            |       131,328 |
|---------------------------------+------------------------+---------------|
| bn1 (BatchNormalization)        | (None, 256)            |         1,024 |
|---------------------------------+------------------------+---------------|
| relu1 (Activation)              | (None, 256)            |             0 |
|---------------------------------+------------------------+---------------|
| dropout1 (Dropout)              | (None, 256)            |             0 |
|---------------------------------+------------------------+---------------|
| output (Dense)                  | (None, 1)              |           257 |
+--------------------------------------------------------------------------+
 Total params: 14,847,297 (56.64 MB)
 Trainable params: 7,211,521 (27.51 MB)
 Non-trainable params: 7,635,776 (29.13 MB)


=======================================================
  STEP 3: Training
=======================================================

[1m1/6[0m [32m===[0m[37m=================[0m [1m23s[0m 5s/step - accuracy: 0.5625 - auc: 0.4773 - loss: 0.8315 - precision: 0.7857 - recall: 0.5000
…
